tiny_char_rnn.pt (torch, 330655 bytes, 7 tensors)

embed.weight f4 [38, 64]
000000 15 c8 1f be 5f 77 b7 3e 40 1d 4e 3c cc 0d 3b bf
       -0.15603669 0.3583326 0.012580216 -0.7306793
000010 dc 88 36 3f 5b 7d 4a bf bd 8e d7 3d a4 37 a8 3f
       0.7130258 -0.7909753 0.10525272 1.314198
000020 d3 62 6e bf b6 f4 40 3f 20 7e 8c 3f 79 13 0c bf
       -0.93119544 0.753734 1.097599 -0.5471721
000030 33 5c 46 3f 66 9a 69 3e 6c e8 bb bf a3 c8 b7 3d
       0.77484435 0.22812805 -1.4680305 0.08973815
000040 34 b9 5e 3d 7d 8b 7a be 5c 84 59 3f 66 4d 6d be
       0.054375842 -0.24467273 0.8496759 -0.23174056
000050 3c 8e 90 bf 2b 35 bb 3f cc fc b9 bf db 93 31 bf
       -1.1293406 1.46256 -1.4530272 -0.69366235
000060 c2 b6 51 bf be 07 c1 bf 18 56 ae 3f b0 8e 73 be
       -0.8191949 -1.5080488 1.3620024 -0.237849
000070 b9 f5 4a 3d de 05 ce 3f 9b fa b9 3f b2 2f 28 3f
       0.049550746 1.609554 1.4529604 0.6569778
000080 d5 c3 66 3e 11 fa c2 bf 78 cb 33 bf ad 7a 95 3e
       0.22535641 -1.5232564 -0.70232344 0.29195157
000090 42 b0 83 be dd 14 9c 3f 95 20 3c bf e7 0f 9d bf
       -0.25720412 1.2193867 -0.73487216 -1.2270478
0000a0 1d 80 39 bf cb 86 d1 3e 89 78 92 bf 87 5b 69 3f
       -0.7246111 0.4092315 -1.1443034 0.91155285
0000b0 6f 47 6e 3f 92 3a 56 3e 72 30 e7 3f 61 84 92 be
       0.9307775 0.2092078 1.8061659 -0.28616622
0000c0 d2 47 97 bf a8 b0 b8 bf 69 2e 02 bf 0e 27 59 3e
       -1.1818793 -1.4428911 -0.50852066 0.21206304
0000d0 9e c8 0c 3f 00 93 96 3f 1f 01 27 3d db d9 58 bf
       0.5499362 1.1763611 0.040772554 -0.8470742
0000e0 57 3c 3a bf 9a c1 76 bf 11 76 38 3f 12 90 0d be
       -0.7274832 -0.9638916 0.72055155 -0.1382449
0000f0 b4 93 91 bf ac 45 09 3f ff b4 54 3f 46 85 a8 3e
       -1.13732 0.53621936 0.8308868 0.3291418
000100 e8 95 af be f0 b1 97 3e 5b b9 7e 3f f5 8e 26 bf
       -0.34294057 0.29627943 0.9950158 -0.65061885
000110 db 01 4d bd 97 b1 90 3e 32 a8 81 bf 71 d1 fc 3f
       -0.050050598 0.2826049 -1.0129454 1.9751416
000120 2e c3 0b 3f 2e 44 72 bf 69 b7 33 bf 11 50 a9 bd
       0.54594696 -0.94635284 -0.70201737 -0.082672246
000130 3e 7c ef bf 07 b9 7e be e2 bb 58 3f 2d d2 54 be
       -1.8709791 -0.2487527 0.84661686 -0.207833
000140 62 ac 80 3f 68 35 dd 3f b1 ee d7 3f 76 3f 4c bd
       1.0052607 1.7281923 1.6869718 -0.04986521
000150 c3 7d 6a bf c7 37 4c bf ce dd e0 be 4d 91 0f c0
       -0.9159815 -0.7977261 -0.43919224 -2.2432435
000160 31 7b 4b 3e 44 67 7a bf 8c d1 9f 3f dd 6d 74 3f
       0.19871213 -0.9781382 1.2485824 0.9548014
000170 64 fb 1c be 57 18 83 bf 08 3e 02 3e d9 5b 5f be
       -0.15330273 -1.0241803 0.12718976 -0.21812381
000180 70 4b fb bd 32 d2 21 3f 39 42 7d 3f 32 a7 32 3e
       -0.12270248 0.6321136 0.9892917 0.17446592
000190 28 94 44 3f b9 5a a1 bf e8 dc 8f bf c9 5b e7 bf
       0.7678857 -1.2605811 -1.123929 -1.8074886
0001a0 21 85 83 be 25 46 83 bf 24 26 b7 be 76 95 c7 3f
       -0.25687507 -1.0255781 -0.35771286 1.5592487
0001b0 e7 24 2a bf f4 0a a5 be 3b 54 0a 40 23 f2 02 c0
       -0.6646256 -0.3223492 2.161391 -2.0460289
0001c0 38 04 c8 3e db 1d e5 be 8c 40 7d be 94 2d e4 3f
       0.3906572 -0.4474934 -0.24731654 1.7826409
0001d0 a0 2d 95 3f 27 58 32 be 7c 8c 71 3f 46 b7 d6 3e
       1.1654549 -0.1741644 0.9435499 0.41936702
0001e0 8b 4c a8 bf 3c 91 60 bf 87 6c 9b bf 94 a0 f4 3e
       -1.3148359 -0.8772161 -1.2142495 0.4777876
0001f0 34 15 11 bf 23 94 c1 3f 76 98 d0 be 51 a8 00 3f
       -0.5667298 1.5123333 -0.40741318 0.5025683
000200 76 7d 09 bf 63 54 81 3f a9 67 b3 3e 8a 4b 80 3f
       -0.53707063 1.0103878 0.35040024 1.0023053
000210 14 73 3b 3f 7f 40 3a be 48 a2 8b 3f 6d 2d ac bf
       0.7322247 -0.18188666 1.0908899 -1.3451363
000220 e2 8e f1 3f fe b2 d8 3e bc bc bb 3e d3 35 2b bf
       1.8871729 0.4232406 0.3666743 -0.66879004
000230 09 5d ad bd 5b 80 bc 3e 56 04 03 3f 57 ca ea be
       -0.08465011 0.36816677 0.5117849 -0.45857498
000240 dc c7 ba 3f f1 0a b9 be 0a 87 89 be 0a 20 17 bf
       1.4592242 -0.3614116 -0.2686084 -0.5903326
000250 a2 e2 82 3e 28 f0 b8 3f 31 ad 2c bf 1b 3d 7d bf
       0.25563532 1.444829 -0.6745177 -0.98921365
000260 e5 66 f2 3f 63 8d e6 bd fe f9 96 bf 0b ee 1f be
       1.8937651 -0.11257436 -1.1795042 -0.1561815
000270 32 ae a1 3f d4 3d 12 3e 9e 4a 3c bf 7c 44 1c 3f
       1.2631285 0.14281398 -0.73551357 0.61042
000280 4c 31 cb 3c 38 3d d7 3e 9c 3c d1 3f df 6c a7 3e
       0.02480378 0.42038894 1.6346622 0.3270025
000290 8f b3 2a bf 35 ba 37 3f eb 73 9d bd c1 88 f7 3f
       -0.66680235 0.71768504 -0.07688125 1.9338609
0002a0 dd e3 c0 bf 4b 2c 85 bf 84 c2 dd bd ac 05 ae bd
       -1.5069538 -1.0404142 -0.108281165 -0.084971756
0002b0 79 97 0a c0 c7 94 5a bf 4e 79 de be 98 1f a8 bf
       -2.1654952 -0.85383266 -0.43451923 -1.3134642
0002c0 ce e9 16 3f af 94 9b 3f 47 41 42 3f cb 04 98 3f
       0.5895051 1.215475 0.75880855 1.1876463
0002d0 da 01 a9 bf 15 4c e8 bf a4 ef 8e be d5 3c b6 bf
       -1.320369 -1.8148218 -0.27917206 -1.4237314
0002e0 f8 fa 0a 40 60 08 00 c0 c8 a7 6f be 79 e4 91 bf
       2.171568 -2.0005112 -0.23403847 -1.1397849
0002f0 46 db d2 bf 38 8c ae bc 71 04 59 bf 6d 8a 22 be
       -1.6473167 -0.021307096 -0.847724 -0.15873118
000300 54 a6 74 bd c3 de 40 3e ad bb bf bf f7 bc 66 3f
       -0.059728935 0.18834977 -1.4979149 0.9013209
000310 0a c0 3e bc 13 65 8d 3e 38 c4 c9 bf b0 27 fd 3e
       -0.011642465 0.27616176 -1.5763006 0.49444342
000320 85 46 b0 be 60 1c d2 3e e6 6c 9f 3f 39 23 20 40
       -0.34428802 0.41037273 1.2455108 2.5021498
000330 aa ce 58 bf f3 4b 67 3d c0 93 7f 3f 86 67 b3 3d
       -0.84690344 0.056468915 0.99834824 0.0875998
000340 3f c7 60 3f 83 da 0d bf 20 ee 98 be 03 e4 86 bf
       0.87804025 -0.5541155 -0.29869175 -1.0538334
000350 2f 24 93 3f cf 1f 2f 3f 3c 98 e3 3d a8 e3 7a 3e
       1.1495417 0.6840791 0.11113021 0.24500906
000360 fd 38 09 3f cf 23 8a bf 97 95 63 3f 12 45 86 bf
       0.5360258 -1.0792178 0.8890013 -1.0489829
000370 c6 47 d6 3f 00 e6 16 be 69 40 2e bf fb 96 82 3e
       1.6740654 -0.14736176 -0.6806703 0.25505814
000380 9a cd 28 bf 16 a4 20 bf d1 d4 85 3f d3 23 e9 3d
       -0.65938723 -0.62750375 1.0455571 0.11383786
000390 37 9d 33 3f ce f6 0b 3f 89 35 70 3f 80 da 33 3f
       0.70161766 0.5467347 0.9383169 0.7025528
0003a0 25 a4 45 3e eb ba 03 be ed 13 a5 3f 12 f5 df bf
       0.19300897 -0.12864272 1.2896706 -1.7496665
0003b0 db 7b ba bf 9c 9e eb bf 47 2c 05 3f e7 fd c1 3e
       -1.4569048 -1.8407779 0.52020687 0.37889025
0003c0 22 85 d5 3f a9 b1 17 bf 44 54 ab bf 0d 61 8f 3f
       1.6681254 -0.5925546 -1.3385091 1.1201493
0003d0 f5 6e 1d 3f a2 53 dd be aa cf 21 40 76 22 a1 bf
       0.6149743 -0.4322787 2.5282998 -1.2588642
0003e0 f5 b4 10 3f aa c5 2c 3d b4 8e 6f bf 59 9c 5d 3f
       0.5652612 0.042180695 -0.9357712 0.8656669
0003f0 c0 9e e1 bf da e3 d4 bf 5b 85 a4 3f 6b 37 c4 be
       -1.7626572 -1.6632035 1.2853197 -0.3832353

rnn.weight_ih_l0 f4 [384, 64]
000000 1e f2 09 3d 64 28 76 bc e9 24 15 3e 40 8d 32 3d
       0.033678167 -0.015024278 0.14564861 0.043591738
000010 aa bf a0 bd 0a 2d 8f 3d 8f 39 6e bd 29 1c 87 bd
       -0.07849057 0.069910124 -0.05816036 -0.06597168
000020 12 fc 12 3d b9 b5 d0 3d 89 20 8e bd 1c 89 01 3e
       0.035884924 0.10190911 -0.06939799 0.1264996
000030 75 01 d5 bc 32 5b b4 bd 57 0a eb 3c 6f 8f 93 3c
       -0.026001671 -0.088064566 0.028691454 0.01801273
000040 ab b0 00 3c 98 1a 5f bd 26 b3 f1 bd 5c 23 1e 3e
       0.007854621 -0.05446872 -0.11801748 0.15443176
000050 ff 21 1e 3c 14 96 8f 3c 95 4c 3f 3d 54 e0 15 3d
       0.00965166 0.017527618 0.046703894 0.03659089
000060 87 b2 62 3d fe 1c 2a 3e 99 30 47 3c ff 8e bf bd
       0.05534604 0.16612622 0.012157583 -0.09353446
000070 8f d5 01 be ed c6 9f bc 25 81 15 bd 78 2e 0e be
       -0.12679122 -0.019504035 -0.036500115 -0.13884914
000080 83 5a ee ba 01 83 5d bd 83 62 31 bc 32 63 e6 bd
       -0.0018184934 -0.054080013 -0.01082671 -0.11249389
000090 19 44 03 3d ba 67 b5 bd 64 b5 7d bd 7d 4e a6 3d
       0.032047365 -0.08857675 -0.061940566 0.08120439
0000a0 6b ca 1a be 33 f6 ba 3d e9 a3 bf 3b 3e e4 88 bd
       -0.15116279 0.0912899 0.005848397 -0.06684159
0000b0 35 5e a8 3c 67 ae ce bd 30 ad d6 bd 18 2f 05 bc
       0.020552734 -0.10091858 -0.10482252 -0.008128904
0000c0 77 79 cf bd 08 35 ce 3d ed ae 2f 3e 99 4a 12 be
       -0.101305895 0.10068709 0.17156573 -0.14286269
0000d0 58 fb 95 3d e5 01 2d be 7d 69 b8 3a 7f 50 91 3d
       0.07323331 -0.16895254 0.0014069524 0.070954315
0000e0 e1 23 af 3d df a6 d7 3d 9b 19 c7 ba 12 cf 9e 3d
       0.08551765 0.10529875 -0.0015190126 0.07754339
0000f0 0c e8 a7 3d 9a 5b b5 bd ff 73 75 bd 2a 6a 3e 3c
       0.08198556 -0.08855362 -0.059925076 0.011621991
000100 f8 86 b6 3c ea 6e 7b bd 46 43 4a 3d 61 dd f7 bd
       0.022281155 -0.061385073 0.049380563 -0.121027716
000110 44 6a a9 bd e9 23 02 bc 1c 6c 3a bd 5f b3 50 3e
       -0.08272222 -0.007943132 -0.045513257 0.20380925
000120 58 a4 93 3d 6a b3 50 3e dd 41 6b 3d f1 3c 08 bd
       0.072090805 0.20380941 0.05743586 -0.033261243
000130 b4 7e cc bb fb d4 69 bc d1 05 fe bd 91 56 c1 bc
       -0.00624069 -0.01427197 -0.12403453 -0.023600848
000140 b8 d9 d4 bc 28 58 8b bd 55 d0 04 bd 21 ae f3 3d
       -0.025982723 -0.06803924 -0.032425243 0.11898447
000150 67 a0 af bd 5c 8e 47 3d 10 ac bc 3c 8b 77 74 bc
       -0.08575516 0.04871975 0.023031265 -0.014921079
000160 d7 79 9f bd 9a 67 d3 bb e5 b8 00 3e ba cc 1d 3d
       -0.07786911 -0.0064515593 0.12570532 0.03852532
000170 c0 52 25 be fd e3 fa 3d 01 a5 35 be 84 67 a1 bd
       -0.16144848 0.122505166 -0.17738725 -0.07881072
000180 fb a6 c6 bd 46 a0 f2 3d 5d 44 75 3c 33 10 e6 bb
       -0.09699818 0.11846976 0.014969912 -0.007020974
000190 98 5c 88 bc bc af 87 3d 93 1c fc bd 67 03 03 3e
       -0.016645715 0.066253155 -0.123101376 0.12794267
0001a0 ae 8a 5a bd dc 14 4a bd 4f e3 77 bd da ca 86 3d
       -0.05335491 -0.0493363 -0.060519513 0.065816596
0001b0 7f 62 f8 bc d0 6d 36 bc 01 96 a2 bd 3a 10 18 be
       -0.030320404 -0.01113458 -0.07938767 -0.1484994
0001c0 57 0d 7c 3d f1 77 0f bd 63 65 61 3c d7 4f 9f bd
       0.06153616 -0.035026494 0.013757083 -0.077789
0001d0 f1 62 49 3c 7e 5e b3 bd 55 04 94 bd af 9e 43 3e
       0.012291656 -0.08758257 -0.07227389 0.19103502
0001e0 03 50 a9 3c 3d dc d8 bd 2c 65 a0 3d aa 3e 28 3e
       0.020668035 -0.10588882 0.07831797 0.16430154
0001f0 9d fb d6 3d 91 0b 30 bb 93 8c 2e be 07 4f 99 bd
       0.1049721 -0.0026862363 -0.17045812 -0.074857764
000200 c6 17 1b bb bb 69 f6 3d 73 61 8e 3d 32 b8 f0 3b
       -0.0023665293 0.12031885 0.06952181 0.0073461765
000210 e2 e5 6c 3b 78 ee 77 3d 1a f8 b2 bc 62 de 85 3d
       0.0036147763 0.060530156 -0.02184682 0.06536557
000220 ea 5c b5 bd fe 5b 2d 3d 91 0e 5a bd e1 5d c9 3d
       -0.088556126 0.04232406 -0.053236548 0.09832359
000230 14 7e 97 3d b8 ed 94 3d 99 cb a0 bd 61 fa d7 bd
       0.07397094 0.07271904 -0.07851333 -0.10545803
000240 8f bf 62 3d 74 e9 b7 bd ae 03 06 3c c0 2e 82 3d
       0.055358466 -0.089800745 0.008179588 0.06356573
000250 59 63 a1 bd 67 a7 01 3e f8 cd 0e 3e fc e1 c1 bc
       -0.07880277 0.12661515 0.13945758 -0.023667328
000260 84 7a 1d be 6a 3a af bd cb 29 db 3c e6 e9 b1 bd
       -0.15378767 -0.085560635 0.026753327 -0.08687191
000270 0f 10 d6 bd f1 c2 a8 3d d7 3b a1 bd 7c 31 47 3c
       -0.10452282 0.08240307 -0.07872742 0.012157794
000280 f4 85 f0 3d 5e e0 9b 3d 48 e3 bb 3d ca e4 0b be
       0.117442995 0.07611154 0.0917421 -0.13661495
000290 40 e4 b6 3c e8 ce be 3d 3a 9e c2 bd fd 4c b8 3d
       0.022325635 0.09316808 -0.095028356 0.08999059
0002a0 1c c2 d8 bd 15 02 13 3c 6e e7 00 be 6d 97 47 3c
       -0.105838984 0.008972664 -0.12588283 0.012182099
0002b0 59 5e 0f be 7f 3a 1d be 24 89 8d bd 4b d4 1b bc
       -0.14000835 -0.15354346 -0.06910923 -0.009511064
0002c0 54 62 0e 3d 15 3f d3 bc ec 0d 79 3d d9 b1 b3 3c
       0.03476174 -0.025786916 0.060804293 0.02193539
0002d0 aa 8b 8b 3c 0f 7c dc 3d a1 61 80 3d 8b 01 12 3d
       0.01703437 0.1076585 0.06268621 0.035646003
0002e0 e6 b0 ff bd b4 c2 8c bd 96 6e 04 bd 3c 75 4e 3d
       -0.124849126 -0.06873074 -0.032332025 0.050404772
0002f0 55 23 5d be 38 3a 08 3e 2b d6 a1 bd 8a 4c 43 be
       -0.2159551 0.13303459 -0.079021774 -0.19072166
000300 bf 99 53 bd 9f 3b cd bd c7 28 48 bd bd c2 ab ba
       -0.051660296 -0.100211374 -0.048867013 -0.0013104301
000310 3c 2b a0 bd 0c 33 53 be 47 3f 35 be e9 b8 97 bd
       -0.07820746 -0.20624942 -0.1769992 -0.07408316
000320 89 62 65 bd 74 0a ee bd 22 65 82 bd a8 59 9f 3d
       -0.056002174 -0.116230875 -0.06366946 0.077807724
000330 02 6d 8c bd f2 3c 1f be e1 9c b1 3c 1e c4 85 bc
       -0.06856729 -0.15550593 0.021681251 -0.016328868
000340 be 97 cf 3d d3 3e 13 3e df a4 10 3d 37 c6 7b 3d
       0.101363644 0.14379434 0.035313483 0.06146833
000350 22 24 59 bd f9 bc 88 bd 38 03 ee bd 80 75 9d 3c
       -0.053012975 -0.06676669 -0.11621708 0.019221067
000360 51 c7 ff 3d 50 14 08 be ca f1 66 3e 33 aa 81 be
       0.124891885 -0.13288999 0.22553173 -0.25325164
000370 a2 a9 7e bd 21 08 fc 3d 07 44 f0 3d b2 f9 b1 bd
       -0.062173493 0.12306238 0.11731725 -0.08690204
000380 ef db c3 3c 0c 72 76 be 1f 6b c5 3d d1 53 6b 3c
       0.023908583 -0.24066943 0.09639572 0.014363245
000390 56 78 f4 bc dd a9 b9 3d 91 a5 66 bd ad 0a 18 3e
       -0.029842537 0.09065602 -0.05631024 0.14847822
0003a0 51 24 a4 3b d6 8e 3a 3e e9 43 cc bd 35 40 2f 3d
       0.005009212 0.1821855 -0.0997389 0.042785842
0003b0 0e 88 64 bd e3 d3 b3 bc c3 3e 2c 3e 84 65 d8 3c
       -0.055793814 -0.021951621 0.16820817 0.026415594
0003c0 e0 8e 08 3e 10 d2 cb 3d 06 8c 45 3e c6 29 1e be
       0.13335752 0.099521756 0.19291696 -0.15445623
0003d0 6d a8 7e 3e 26 52 50 bc e6 33 1a bb 74 1f 1f 3e
       0.24868937 -0.012714898 -0.002352947 0.15539342
0003e0 17 db 86 3d 80 5d 93 bc f3 5b f2 bd fe c6 db 3d
       0.06584757 -0.01798892 -0.11833944 0.10731314
0003f0 fc 3c 02 be 22 30 ab bb 95 5c 52 3e 5e eb a7 3d
       -0.12718576 -0.0052242437 0.2054313 0.081991896

rnn.weight_hh_l0 f4 [384, 128]
000000 e0 21 4f 3d 7f a6 23 be 5e bf 87 3b 57 d9 05 be
       0.050569415 -0.15981482 0.004142686 -0.1307119
000010 b0 c8 aa bd 07 96 85 3d 6a d4 8b 3d c8 20 3c 3c
       -0.08339059 0.06522756 0.06827624 0.011482425
000020 23 56 28 3e e8 53 80 3e 99 30 5d bc 83 bf 99 bd
       0.16439109 0.25064015 -0.013500356 -0.07507231
000030 5f a4 0f be ea b0 c2 3d 02 85 26 3b cf a2 cc 3a
       -0.14027546 0.095064 0.0025408869 0.0015612486
000040 86 f3 e4 bd b2 c8 39 be 67 28 a0 bc 6a fc c2 bd
       -0.11179261 -0.18142965 -0.019550515 -0.095208004
000050 e7 de ec 3d 1c c2 77 3d 40 d2 ac 3b 2a 46 10 bd
       0.11565953 0.06048785 0.005274087 -0.035223164
000060 67 7a 21 be 23 25 f2 bd 61 63 66 3e 01 9f fb 3b
       -0.15769349 -0.118234895 0.22498848 0.007678867
000070 05 98 49 3d 4f c2 5c bd c5 61 f3 bb 73 af c7 3d
       0.049217243 -0.053896245 -0.0074274265 0.09750261
000080 a4 bf 33 3c 4e ab cd 3c 79 6b 42 3d 88 64 e7 bd
       0.010970984 0.025106099 0.047465775 -0.11298472
000090 1d ec bf bd 50 6c 89 3d 0b 2b 90 bc 5e 08 13 3e
       -0.09371207 0.06710112 -0.01759865 0.1435866
0000a0 fc d4 33 bd c6 f2 5e bd 02 5a 1f 3e d3 63 a8 bd
       -0.04390429 -0.054430746 0.15561679 -0.08222165
0000b0 dd d9 38 3e b9 d5 c9 3d b0 21 46 3e 09 09 b6 bd
       0.18051858 0.098552175 0.19348788 -0.08888442
0000c0 8e e2 18 3c 0a 15 5e 3c 25 e6 ae 3d 36 27 87 bd
       0.009331359 0.013554821 0.0853999 -0.06599276
0000d0 c4 1f b9 bb 90 21 bd 3d dc 05 52 39 80 19 1c be
       -0.0056495387 0.09234917 0.00020029343 -0.15244102
0000e0 68 75 18 3e f2 37 ef bd 0c 89 de 3d 2f 7c 0f 3c
       0.14888537 -0.116805926 0.10865983 0.008757635
0000f0 be 0e b8 39 98 ca 62 3e 61 e7 01 be d5 74 09 3d
       0.000351062 0.22147596 -0.1268592 0.033558685
000100 34 d7 93 bd a2 f3 9b 3d b4 c7 7d bb 2a f0 2f bd
       -0.07218781 0.07614829 -0.0038723769 -0.042953648
000110 b4 3e 89 bd a7 d9 17 3b 0a f4 29 be e5 ae 8f 3d
       -0.06701413 0.0023170502 -0.16597 0.0701578
000120 ea b3 e6 ba 86 d4 fa 3c b9 71 1f 3e b2 1e dc 3c
       -0.0017601226 0.030618917 0.15570726 0.026870105
000130 fe 3f 90 bd 6b 98 89 bd eb a9 b0 bd 9c f2 ab 3d
       -0.070434555 -0.067185245 -0.08626159 0.083958834
000140 f2 5d e1 bc ff 00 5b 3e bf 55 93 bd b8 50 46 bc
       -0.027510617 0.21387099 -0.07194089 -0.012104206
000150 3c 72 ab 3d 5f fa 19 3b 21 88 9b bd f1 e6 8f bd
       0.08371398 0.002349518 -0.07594324 -0.070264705
000160 77 95 09 bd 7e d3 82 3d 82 0b 28 bc 61 2f 08 bd
       -0.033589806 0.06387995 -0.01025665 -0.03324831
000170 06 0e d2 bc ad 03 1c be c5 20 2a 3e da 8a 43 bd
       -0.025641453 -0.15235777 0.16614063 -0.04773984
000180 ac 29 31 bd 0d b3 31 be 76 a4 02 3d e6 ed a5 3d
       -0.043252632 -0.17353459 0.031895123 0.08102016
000190 4f cd c7 bd 95 a9 d7 bc b8 1d 07 3e 08 e1 51 3e
       -0.097559564 -0.02632598 0.1319493 0.20495999
0001a0 af 78 94 3c da e7 15 be 9a 45 f8 3d 1f 48 0d 3d
       0.018123953 -0.14639226 0.121226504 0.03449261
0001b0 9d 71 19 be 77 7a fa bc 48 25 26 be 86 e7 27 3d
       -0.14984746 -0.030575974 -0.16225159 0.040992282
0001c0 6d f0 75 3d 4d bd 6d 3d 20 b2 7a 3c da 84 07 3d
       0.06004374 0.05804186 0.015301257 0.03308568
0001d0 c8 77 f2 bc 85 a5 74 3d b9 ff 85 3d 44 e3 26 be
       -0.029598132 0.059728164 0.06542916 -0.16297632
0001e0 ea 93 ff 3d 83 8b f3 bd 05 ba fd bd 35 8f 56 bd
       0.12479384 -0.11891844 -0.12388996 -0.052382667
0001f0 51 64 4d bd 26 80 84 3d 2e 06 0e 3a 9d 61 82 3d
       -0.050144497 0.06469755 0.0005417791 0.063662745
000200 69 39 a5 bc da 52 24 be e6 27 00 3e b7 75 a2 3d
       -0.020168977 -0.1604723 0.1251522 0.079326086
000210 79 25 cb 3d bd ec cd bd 93 7c 79 bd 5f 9b dd 3c
       0.09919257 -0.1005492 -0.06090982 0.027051626
000220 44 d7 f3 bc 9c d6 3f 3e 33 6d d5 3c 79 c2 2a 3d
       -0.029765733 0.1873421 0.026053047 0.04168937
000230 1f 08 1b be a2 9c 75 3a f6 e2 69 bb 15 e8 5a be
       -0.15139817 0.00093693484 -0.0035688258 -0.21377595
000240 45 49 cf 3d 18 b7 8e bd 52 ce 94 bd c4 ad e8 bd
       0.10121397 -0.06968516 -0.07265915 -0.11361268
000250 50 79 3a be 67 41 0c 3d d2 ea 2e bd a1 63 b6 bd
       -0.1821034 0.03424206 -0.04270441 -0.089057215
000260 b4 0e 06 3c 43 53 22 bc 91 2c 5b bc ac 3f d0 bc
       0.008182216 -0.009907546 -0.013377325 -0.025420986
000270 60 76 cc bd ca cd 8a bd 77 f2 27 be 9b 38 fc 3c
       -0.09983516 -0.067775324 -0.16401087 0.03078871
000280 0e ac ed bd 84 b2 81 3c 84 a9 c0 3c 0c 70 0e be
       -0.116050825 0.015832193 0.023518331 -0.1390993
000290 0e 8d 3f bd ab 1a f5 3d cb 63 4c 3d 0a 24 16 3c
       -0.04676538 0.11967977 0.049899857 0.009163866
0002a0 d2 61 35 bd ef c4 e2 bd db 26 db 3d 7e 2f 04 bd
       -0.04428274 -0.11072718 0.107007705 -0.032271855
0002b0 30 92 94 3d c3 e0 80 bd 6a 7f d1 3a ac 7e b0 bd
       0.072544456 -0.0629287 0.0015983407 -0.08617911
0002c0 ad 01 22 bd 24 ad 2e 3d 8d 35 cb bd 82 40 9a 3b
       -0.03955238 0.04264559 -0.099223234 0.004707397
0002d0 5a 4f 37 be ec 63 cb bb 61 9c 89 3d 4d 59 08 be
       -0.17901364 -0.00620698 0.0671928 -0.13315316
0002e0 7c 15 29 bd 3f ed 99 bd 13 a4 8e 3b bd c1 c6 bc
       -0.041280255 -0.07515954 0.0043530553 -0.024262303
0002f0 ca 0d 7f bd c9 bb 38 3d ec 3c c9 bd bd 85 be 3d
       -0.06226901 0.04510096 -0.09826073 0.09302852
000300 0b d5 09 3e d6 69 f6 3d 91 56 94 bd 5e 8f 01 3c
       0.13460176 0.12031905 -0.07243074 0.007907717
000310 b9 67 80 bc c7 4a f3 3d 6f 02 88 bd 9e 13 d2 3d
       -0.015674459 0.11879497 -0.06641089 0.10257648
000320 ba 8b a4 3d bb 57 1c 3d 72 02 14 3e a1 e7 1f bc
       0.08034463 0.038169604 0.14454058 -0.0097598145
000330 1c c2 47 bd d3 02 01 3e c5 e3 a7 bd 43 9d 46 3d
       -0.0487691 0.12598734 -0.081977405 0.04848982
000340 13 a9 1f be 28 83 2e 3c 71 bb c4 bd da 95 93 3d
       -0.1559184 0.010651387 -0.09606064 0.07206316
000350 ac 3d ab bb 4e 5a ba bd 8e c1 5c 3c 8f a8 eb 3d
       -0.0052258577 -0.090992555 0.013473881 0.115067594
000360 8e c6 ad 3c 4d 65 41 3d 2b 45 bf 3c 5b bd 8b bd
       0.021212842 0.04721575 0.023348412 -0.06823226
000370 1a 98 88 bd 53 97 09 be be 6c a4 bd 9c 1c 99 3c
       -0.06669636 -0.13436632 -0.080285534 0.0186904
000380 5a 74 76 3d ca c8 37 3d 54 4b 0c be ee cf c2 3d
       0.060169555 0.04486922 -0.1370061 0.09512316
000390 f3 30 da bd 40 67 5a be 03 c0 34 3d e2 4b 35 3d
       -0.106538676 -0.21328449 0.04412843 0.04426182
0003a0 45 6b 28 be 2e aa bd 3d 45 25 9e ba d8 58 6a bd
       -0.1644717 0.09260975 -0.001206555 -0.057213634
0003b0 a0 07 f4 bd 30 e2 5b 3d 13 b1 5e 3d 19 de ca 3d
       -0.11915517 0.053682506 0.05436809 0.09905643
0003c0 b4 a2 a3 3d 75 30 38 bc 0f a0 41 3d 63 48 e8 bd
       0.079900175 -0.011242022 0.047271784 -0.11341932
0003d0 4a 0f 19 3e a3 7c 93 bd 0d 7f e8 bc 51 6e 0d be
       0.14947239 -0.07201507 -0.028380895 -0.13811614
0003e0 fb b9 57 3d 27 e8 f6 bd 9d ea 00 be 69 78 f3 3d
       0.0526676 -0.12055998 -0.12589498 0.11888201
0003f0 7e a8 d8 3d 2f 88 c5 3c c1 6d 77 3d 88 cd 2e be
       0.10579012 0.024112789 0.060407404 -0.17070591

rnn.bias_ih_l0 f4 [384]
000000 77 a8 7c 3c eb c1 bf 3d ce e0 37 3e a9 2b c0 3d
       0.0154210245 0.09363159 0.1795685 0.093833275
000010 0a d0 13 3d 0f fc db 3c 96 e3 9f 3d 51 40 85 3d
       0.036087073 0.02685359 0.078070804 0.06506408
000020 9a da 8f 3d 4e e7 f9 3c 9a c0 5a 3d a7 2b cb 3d
       0.07024117 0.030505802 0.053406335 0.099204354
000030 49 af 40 3d 79 74 11 3e 21 55 1f 3d c2 69 d0 3d
       0.047042165 0.14204587 0.038899545 0.10176422
000040 2c 8e 21 3c a7 2f a8 3c d2 00 6e bc 9e ad 1e 3e
       0.009860557 0.020530535 -0.014526563 0.15495917
000050 78 f6 b0 bc b0 a1 6d bc 60 79 df 3c fe 59 0b 3e
       -0.0216019 -0.014503881 0.027279556 0.13608548
000060 b6 d3 a3 3d 23 bd 9a 3d f7 da f5 bc 20 ca e4 3d
       0.07999365 0.07555606 -0.030011637 0.11171365
000070 d4 95 20 3d c5 a8 cb 3c 0a 1e fb 3d 6f 35 f8 3d
       0.039205387 0.024860749 0.12261589 0.12119567
000080 4e 9f a9 3d ec 94 1b 3c df c2 a8 3d de 50 6b 3d
       0.08282338 0.009495955 0.08240294 0.057450168
000090 bf 9c 52 3d 5b f8 7d 3c 1b b9 0a 3e 9f fa 00 3c
       0.051419016 0.015501107 0.13547175 0.007872253
0000a0 c0 62 59 3d 20 84 b4 3c 9f de 82 3d b9 b1 c5 3d
       0.05307269 0.022035658 0.06390118 0.096530385
0000b0 ac e8 08 3b 62 b6 1f 3d 1b aa 18 3e da 01 05 3e
       0.0020890636 0.038992293 0.1490864 0.12988988
0000c0 95 ec ca 3c a5 cb d5 3d 8e 21 af 3d 1a ff 85 3d
       0.024771014 0.10439233 0.08551322 0.065427974
0000d0 81 89 f4 3b 39 f8 db 3c 85 ab 16 3d 7a ec cf 3d
       0.007462681 0.02685176 0.036784668 0.10152526
0000e0 b9 0e d1 3c 2a bf f0 3d c4 37 fe 3b 77 19 b2 38
       0.025519716 0.11755212 0.0077581126 8.4924446e-05
0000f0 4f 53 60 3d 36 75 de 3b 2d 66 24 3e a3 93 e9 3d
       0.05476695 0.006788875 0.16054602 0.114051126
000100 61 f4 8f 3d af 3f 13 bc 75 35 b6 3d 5b d5 ae 3a
       0.070290335 -0.008987351 0.08896915 0.0013338731
000110 ae 18 3d 3e 0a f6 0a 3d 88 33 8d 3d ff 2f 14 3e
       0.18466446 0.033926047 0.068945944 0.14471434
000120 d1 96 12 3c 90 1c 8b 3d d1 d5 08 3d e7 b7 17 3d
       0.00894709 0.06792557 0.033407036 0.037040617
000130 d2 aa 8a 3d 2a da 11 bc c4 27 9f 3d 56 bd b4 bb
       0.06770863 -0.008902112 0.077712566 -0.0055157347
000140 53 73 4b 3d 88 b2 ec 3d e0 35 4a 3d ba 36 a6 bc
       0.04967053 0.1155749 0.049367785 -0.020289768
000150 9c 42 8f 3d 5d 9a 31 3e cd 50 f4 3c 25 d5 50 3d
       0.069951266 0.17344041 0.029823685 0.05098452
000160 66 8f de 3d 52 46 fd 3d 3f a0 b4 3d 12 ce a4 3d
       0.10867195 0.12366928 0.08819627 0.08047117
000170 fd 05 77 3d e3 54 5e bb f0 2a a6 3d c1 64 e9 3d
       0.060308445 -0.0033925108 0.081136584 0.113961704
000180 ac 09 ff 3d bb ba 02 3e bc e1 f1 3d f0 c4 c8 3d
       0.12453017 0.12766545 0.118106335 0.09803188
000190 31 a2 0b 3e 80 09 35 3e 35 ee 49 3d 4b 67 11 3e
       0.1363609 0.17679405 0.049299438 0.1419956
0001a0 0c 04 38 3e 8b 3b d0 3d 7e 8d 43 bb 67 87 e0 bb
       0.17970294 0.10167607 -0.0029838975 -0.0068520787
0001b0 bd 4a 1e 3e 73 e8 0b bb 32 92 91 3d 47 b0 83 3d
       0.15458198 -0.0021348267 0.07107963 0.064301066
0001c0 00 aa b0 3c b1 2b 0f 3e 04 62 99 3a 5e 14 0e 3c
       0.021565437 0.1398151 0.0011702185 0.008671848
0001d0 f4 af 49 3d 92 91 97 3d 44 c6 30 3e f3 b6 77 3d
       0.049240068 0.07400812 0.17263132 0.06047721
0001e0 a9 db 78 bb 91 71 53 3d 99 05 65 3c 68 a1 a6 3d
       -0.0037972725 0.051621977 0.013978385 0.081362545
0001f0 3f d6 44 3c 83 59 14 3e 09 c8 90 3d ce 5b ea 3d
       0.012013971 0.14487271 0.07069404 0.114432916
000200 61 83 f2 ba 49 02 27 be 39 af 6e be cc c7 29 be
       -0.0018502289 -0.16309465 -0.2330903 -0.16580123
000210 b8 fd 08 be e3 9f ae bd c0 c3 da bd 3a 6c 48 bd
       -0.13378036 -0.0852659 -0.106818676 -0.048931338
000220 1c 2f 3d be c7 c2 90 bd d2 63 0c be f4 44 9b bd
       -0.18475002 -0.07068401 -0.13709953 -0.07581511
000230 0e 48 a7 bd a9 ff f0 bd e1 a6 dd bd 3a 82 27 be
       -0.0816804 -0.11767513 -0.10822845 -0.16358271
000240 bf c8 a5 bd 40 27 48 be 92 d9 d1 bd 96 f6 3f be
       -0.0809493 -0.19546223 -0.10246576 -0.18746409
000250 11 82 14 be 70 ea 32 be 56 e6 a4 bd 64 ec f6 bd
       -0.14502741 -0.17472243 -0.080517456 -0.12056807
000260 90 02 45 be 22 76 05 be c1 11 f9 bd 6e e1 58 be
       -0.19239259 -0.13033345 -0.121615894 -0.21179745
000270 8e 6c 27 be a2 92 c8 bd a2 df 25 be 9d 47 12 be
       -0.16350004 -0.09793593 -0.1619859 -0.14285131
000280 f4 f1 82 bd 97 88 af bd 4f 40 41 be 8c d6 41 bc
       -0.06393805 -0.08570974 -0.18872188 -0.011830937
000290 9b cc 1a be ce 2e 5a be 56 e6 4b be f3 92 f4 bd
       -0.15117113 -0.21306917 -0.19912085 -0.11942091
0002a0 9a d6 85 bd 10 24 9d bd e1 f8 09 be 67 9d 91 3d
       -0.065350726 -0.07672894 -0.13473846 0.071101
0002b0 5d c6 c3 bd 4d 32 b7 bd 2d 0a 9d bd 0a eb 07 be
       -0.09559319 -0.08945141 -0.076679565 -0.13273254
0002c0 04 6a 1b be cb 73 88 bd ea 22 d0 bd b0 bf c8 bd
       -0.1517716 -0.06662711 -0.10162909 -0.098021865
0002d0 9a 95 25 be d2 69 21 be 25 b8 07 be 29 07 03 be
       -0.1617035 -0.15763023 -0.1325384 -0.127957
0002e0 f8 30 b9 bd dc 17 2c be 20 f8 0d be e1 7a 09 be
       -0.09042543 -0.16805977 -0.13864183 -0.13425781
0002f0 18 44 01 be c9 92 41 be 38 28 12 be b8 82 3a be
       -0.12623632 -0.1890365 -0.14273155 -0.18213928
000300 da a7 c1 bd cd 75 66 be c7 f9 91 bd 2c 50 42 be
       -0.09455843 -0.22505875 -0.07127719 -0.18975896
000310 eb da f6 bd a1 63 ef bc b4 39 05 bd 3b a4 bf bd
       -0.12053474 -0.029222311 -0.032525733 -0.09357496
000320 3e 27 28 be 0c ff 26 be f6 f3 1a be 31 3a 8a bd
       -0.1642122 -0.1630823 -0.15132126 -0.067493804
000330 d6 0e d3 bd 8e d1 20 be 78 0a ab 3d d2 7e 42 be
       -0.10305564 -0.15704939 0.08351606 -0.1899369
000340 b8 a9 17 be e1 50 48 bd 24 3e 98 bd 97 c7 fa bd
       -0.14810836 -0.048905257 -0.074337274 -0.122451
000350 fe 19 35 bd c2 a6 01 be 0e 48 20 be c3 e9 9b bd
       -0.04421424 -0.1266127 -0.15652487 -0.07612946
000360 ba 8d c6 bd 7f b1 3d be fb 35 68 be ad ac 29 bd
       -0.09695001 -0.1852474 -0.22676842 -0.041424442
000370 4f eb 32 be 0a 72 0c be 28 16 eb bd 83 d7 40 be
       -0.17472576 -0.13715377 -0.11478835 -0.18832211
000380 f6 a2 0d be cd 99 c2 bd 8c cb 96 bd 4e 42 28 be
       -0.13831696 -0.095019914 -0.07363042 -0.16431543
000390 72 41 9b bd 8d 22 f4 bd 15 85 2e bd 81 f7 2f be
       -0.07580842 -0.119206525 -0.042607386 -0.17184259
0003a0 93 d5 38 be 33 ad 74 bd c6 71 5f bd 46 42 1f be
       -0.18050222 -0.05973549 -0.054551862 -0.15552625
0003b0 dc 06 fb bd d8 6b 2d bd 82 9a cc bd 68 81 13 be
       -0.12257168 -0.042339176 -0.099904075 -0.14404833
0003c0 44 f1 03 be 31 bf cf bd d8 6a 6c be df 50 51 be
       -0.12885004 -0.10143889 -0.23087633 -0.20441006
0003d0 af 5c 0c be 46 5f a3 bd 78 f5 4e bc c9 f2 86 bd
       -0.13707231 -0.07977156 -0.0126317665 -0.06589276
0003e0 85 69 aa bd 8a 94 0e be ad 76 23 3b d6 60 b4 bd
       -0.083209075 -0.1392385 0.0024942562 -0.088075325
0003f0 bc 75 42 3d 06 a6 49 be 64 d3 99 bd b4 6e 68 be
       0.04747556 -0.19692239 -0.07511023 -0.2269848

rnn.bias_hh_l0 f4 [384]
000000 29 53 62 3d fb 08 f9 3d f8 4d 7b 3d 52 80 1b 3d
       0.05525509 0.12159916 0.061353654 0.037964173
000010 73 74 d7 3d 26 69 34 3d 9b 35 7d 3c 63 27 4a 3d
       0.10520258 0.04404559 0.015454675 0.04935397
000020 2a 7d b1 3b 1a 6d 09 3e d6 b7 9e 3d 0d 90 6c 3d
       0.005416532 0.13420525 0.07749908 0.057754565
000030 8b 4d 84 3d bd 32 12 3c fb 95 60 bc 46 b7 18 3e
       0.06460103 0.00892323 -0.013707633 0.14913663
000040 49 c5 e4 3d 46 ae fb 3d 09 d8 24 3d d6 43 56 3d
       0.11170442 0.122890994 0.04024509 0.052310787
000050 f2 5c a8 3d f2 8d e7 3d f3 61 49 3d 31 ce ba ba
       0.08220853 0.11306371 0.049165677 -0.0014252124
000060 d4 57 b8 3a 47 b2 0f 3e b8 c7 ed 3d 03 d5 9d 3d
       0.0014064261 0.14032851 0.11610359 0.077066444
000070 80 8d 68 3d ef 6c 13 3e 8b b7 e8 3d 55 44 0a 3e
       0.05677557 0.14397024 0.11363133 0.13502629
000080 42 b5 af 3a 93 29 d5 3d 97 f8 97 3d a0 44 cc 3d
       0.001340546 0.1040832 0.074204616 0.09974027
000090 b4 82 71 3d bd 08 ee 3d d6 a5 61 3d 3f 9b 27 3e
       0.05896254 0.116227604 0.055089794 0.16367815
0000a0 e7 57 0a 3e a1 f5 10 bc eb 93 f7 3d cd da c4 3d
       0.13510095 -0.008847625 0.1208876 0.096120454
0000b0 58 09 52 bc 4b ed e4 3c 67 b3 ff 3d 06 b9 ee 3d
       -0.012819611 0.027945181 0.1248539 0.11656384
0000c0 93 36 65 3d 44 7e 25 3e d6 a8 d5 ba 20 05 fe 3c
       0.05596025 0.16161448 -0.0016300927 0.031008303
0000d0 9e 90 88 3d 10 fb e6 3c 00 74 69 3d f3 c6 eb 3c
       0.066682085 0.028195888 0.05699539 0.02878139
0000e0 0e 02 64 3c 8c 84 f2 3d 55 89 68 3d 24 6d 22 3c
       0.0139165055 0.118416876 0.056771595 0.009913716
0000f0 a1 81 f7 3d 8a 2a 95 3c 9d 92 20 3e 62 8a 01 3e
       0.120852716 0.01820876 0.15680929 0.12650445
000100 fb fa 6c 3c 19 ee 03 3e 63 38 82 bd 31 12 e3 3d
       0.014464135 0.12883796 -0.06358411 0.11087454
000110 57 6e 84 3d 52 bd 1f 3b f9 77 8a 3d cc 3c 85 3d
       0.06466358 0.0024374318 0.06761164 0.06505737
000120 9f e5 07 bd 44 64 9a 3d 80 8e 25 3e 49 76 7a 3d
       -0.033177968 0.075386554 0.1616764 0.06114796
000130 66 26 9f 3d 58 b9 88 3d 5c 49 88 3d d6 f4 27 bc
       0.07770996 0.066759765 0.06654617 -0.0102512445
000140 b6 fa 05 3e 27 df ea 3d 86 0f 8b bc 5f c5 01 3e
       0.1308392 0.11468344 -0.016975176 0.12672947
000150 af 71 ff 3d de 5d 06 3e ea e3 d4 3d 94 2b b2 3d
       0.12472855 0.13121745 0.10395034 0.08699718
000160 0b cf 47 3d aa 35 96 3d 27 37 be 3d 8f 92 2c 3d
       0.048781436 0.07334454 0.09287863 0.042131957
000170 2a 76 01 3e 38 bc b6 3d 89 63 6c 3d d0 78 45 3d
       0.12642732 0.08922619 0.05771211 0.04821092
000180 2e f6 e5 3d d7 ec 04 3e e4 1a b7 3d 16 68 ea bc
       0.11228596 0.12980972 0.08940676 -0.028614085
000190 29 48 07 3e 58 c6 c2 3d 1e 5b 20 3e a2 d9 66 3d
       0.1321112 0.09510487 0.15659758 0.056359895
0001a0 9a ad c9 3d 02 95 33 3d 38 7c ea 3d a0 b6 db 3d
       0.09847565 0.043843277 0.11449474 0.10728192
0001b0 74 14 03 3d 3c a5 c7 3d e4 09 a7 3d ce c6 0b 3e
       0.032001927 0.09748313 0.08156183 0.13650057
0001c0 18 f8 c1 bc 2e a4 56 3b f6 88 ad 3c c2 9f c9 3c
       -0.02367787 0.0032751667 0.021183472 0.024612311
0001d0 5d e0 5a 3d ca 1c 0b 3e 59 3d 3e 3e 45 14 67 3c
       0.053436626 0.13585201 0.1857809 0.014103954
0001e0 9d 2d c4 3c 44 38 0c bd 4a 2b cd 3d 60 65 bc 3c
       0.023947531 -0.034233347 0.10018022 0.022997558
0001f0 90 23 9f 3c 0b bb 00 3d 9b 6b 07 3e 24 f1 f3 3d
       0.019426137 0.031428378 0.13224642 0.11911228
000200 07 aa 84 bd 72 8a 00 be d1 e4 62 be fb af 22 bd
       -0.06477743 -0.12552813 -0.22157599 -0.03971861
000210 ad 6b 2b be c5 05 b8 bd 32 40 14 bd 02 62 a3 bd
       -0.16740294 -0.089854755 -0.036194034 -0.07977678
000220 88 a0 2a be 24 1b 0a be 49 af 1a be 8d 4a f0 bd
       -0.166628 -0.13486916 -0.15105928 -0.117329694
000230 1a d5 af bc 45 ec c8 bd 0e 5e 90 bc 14 bc 36 be
       -0.02146392 -0.0981069 -0.017622974 -0.17845184
000240 83 1a c7 bd a4 90 59 be 6a 24 90 bd 57 bd 0e be
       -0.097218536 -0.21246582 -0.070381954 -0.13939415
000250 eb 77 2c be 1b 3b 80 bd d2 63 fc bc 53 c2 f0 bd
       -0.1684262 -0.062612735 -0.030809317 -0.117558144
000260 95 ac c7 bd a6 b9 11 be 60 a6 28 be 6d c4 14 be
       -0.09749714 -0.14230976 -0.16469717 -0.14528055
000270 fa 16 fd bd 71 6a 3a be 38 3c e5 bd aa c9 cd bd
       -0.12357898 -0.18204667 -0.111931264 -0.1004823
000280 f8 58 03 bd 0c 76 f2 bd 6a 00 56 be 0e 60 b4 bc
       -0.03206727 -0.11838922 -0.20898595 -0.022018459
000290 d6 24 d8 bd 7f d3 8f bd 42 37 2b be 09 53 05 be
       -0.10553901 -0.070227616 -0.16720298 -0.13019957
0002a0 8f 1d 8e bd 56 8b 1a be 13 f1 28 be fb 54 7d 3c
       -0.069392316 -0.15092215 -0.16498213 0.015462155
0002b0 1f 50 20 be fa 79 0e be 14 dc 05 be 4a 9e f3 bc
       -0.15655564 -0.13913718 -0.13072234 -0.029738564
0002c0 4e 55 0d be 7c a7 10 be 50 52 a1 bd ab fe d1 bd
       -0.13802072 -0.1412639 -0.07877028 -0.10253652
0002d0 aa 0e 24 bd b4 51 37 bd 55 e9 18 be ff c1 8e bd
       -0.040053047 -0.044755653 -0.14932759 -0.069705956
0002e0 b1 10 53 be 93 0d 31 be fe 85 22 be b5 6a 4a be
       -0.20611836 -0.17290334 -0.15871426 -0.19767268
0002f0 ff 02 33 be f9 5a d7 bd 14 b2 4d bd 1c 23 24 bd
       -0.17481612 -0.105153985 -0.050218657 -0.040072545
000300 b7 83 1a be 66 66 c3 bd 76 59 06 be a1 88 1a be
       -0.15089308 -0.09541015 -0.13120064 -0.15091182
000310 30 e3 ea bd 64 a8 7b bd ce 54 17 be b2 ab b3 bd
       -0.11469114 -0.061439887 -0.14778444 -0.08772983
000320 21 5c d5 bd a9 1d 1a be fe c1 96 bd da 01 17 bd
       -0.10417963 -0.15050377 -0.0736122 -0.036867
000330 4c 8e 14 be 2a a5 20 be a1 71 42 bb 7c 94 33 be
       -0.14507407 -0.15688005 -0.002966978 -0.17537111
000340 c9 ef d3 bd 90 ec c8 bd 7d 66 3b be 7f 25 8e bd
       -0.1034847 -0.09810746 -0.18300815 -0.069407456
000350 97 41 0a be 38 bf 1c be f4 40 2b be d3 ae 10 be
       -0.13501583 -0.15307319 -0.16723996 -0.1412919
000360 de 87 71 be dc d3 fa bd e5 ae 28 be 0d 45 fb bd
       -0.23586985 -0.1224744 -0.16472967 -0.1226903
000370 1a 9c 45 be 2a ea 09 be ac 69 29 be ca 94 3c be
       -0.1929783 -0.13468233 -0.16544217 -0.18416134
000380 7e 22 38 be e3 19 92 bd d7 61 e4 bd 0b ae 03 be
       -0.17981908 -0.07133844 -0.11151474 -0.12859361
000390 fe bd 41 be e9 63 1f be 4b 53 52 bd f5 1b c4 bd
       -0.18920133 -0.15565456 -0.051348966 -0.09575645
0003a0 3b 00 a2 bd 0a 42 1e be 2f cc a6 bd 15 42 8d bd
       -0.079102 -0.1545488 -0.08144414 -0.0689737
0003b0 35 04 47 be 38 9d 68 3b 43 08 5e be 14 28 1b be
       -0.19435199 0.00354941 -0.21682839 -0.15152007
0003c0 77 2e 2d be 41 87 05 be 48 ae 2b be 59 66 67 be
       -0.16912256 -0.13039877 -0.16765702 -0.22597636
0003d0 1d cd de bd e1 cd 08 be fe 06 c3 bd 50 3c 5c bd
       -0.10878966 -0.13359787 -0.09522818 -0.053768456
0003e0 37 20 2f be 56 5f e8 bd 1c 36 a7 3a a4 2f 05 be
       -0.17102133 -0.11346309 0.0012757215 -0.13006455
0003f0 41 59 da bd d7 93 03 bd 83 dc 09 be e2 27 bf bd
       -0.10661555 -0.032123413 -0.13463025 -0.09333779

fc.weight f4 [38, 128]
000000 55 5a c0 3d 1e 9d 9a bb b3 eb 1d bd 09 9b 5e bd
       0.093922295 -0.004718437 -0.03855486 -0.05434707
000010 c5 e3 d5 bd 7b c7 53 be 03 fb cc bd 8a 49 e2 3d
       -0.10443834 -0.20681565 -0.10008814 0.11049183
000020 8c 7d 26 3e 76 72 e9 bd 96 69 8d 3d c3 31 14 3e
       0.1625883 -0.11398785 0.069049045 0.14472108
000030 52 98 5f 3d 3f 4e fe 3d f1 bc 91 3d 34 dd 24 3d
       0.054588623 0.12417268 0.07116116 0.04025002
000040 7c c2 2e 3e 87 27 5b be d8 81 83 3d 9e 18 09 be
       0.17066377 -0.21401797 0.0642125 -0.13388297
000050 51 31 b5 3d 84 f4 0f 3e d9 36 1d be 7a 24 61 bd
       0.08847297 0.14058119 -0.15352954 -0.054966427
000060 76 e7 6b 3d 96 9a 42 3e 73 0c cf 3d a3 a6 31 3e
       0.057593785 0.19004282 0.101097964 0.17348723
000070 b4 dd 51 3e 69 03 5b bd f8 bb 8e bd 63 0a 04 3e
       0.2049473 -0.05347005 -0.06969446 0.12894587
000080 74 38 30 3e fb 92 9a bd 69 16 19 be a1 6e 0c 3e
       0.17209035 -0.075475655 -0.14949955 0.13714077
000090 1c f0 ef bd cd ec 41 3d 58 84 3d bc 5a f3 21 3e
       -0.11715719 0.04734497 -0.011567198 0.15815488
0000a0 c3 7f ad bd dd 1f 13 3e c1 eb b2 bd f9 fa ae bd
       -0.08471634 0.14367624 -0.08736373 -0.08543963
0000b0 46 94 ef bd 18 d8 8b bd 5c 13 ec 3d a1 f9 b0 bd
       -0.11698203 -0.06828326 0.1152713 -0.08641363
0000c0 9d e7 27 be eb 18 39 be 76 4c 04 be 28 64 33 3e
       -0.16396947 -0.18075912 -0.12919793 0.17518675
0000d0 f8 3a 81 bd 68 c0 cc 3c 4c 0a c7 bd e3 e6 88 bd
       -0.063100755 0.02499409 -0.09718761 -0.06684663
0000e0 77 1d 41 be b3 ee 1a 3e 28 28 c9 3d 9d f6 c2 bd
       -0.18858896 0.15130119 0.09822112 -0.09519694
0000f0 d0 8f 9c bd f9 e6 56 be df 21 a0 3d 04 2e e4 3d
       -0.076446176 -0.20986547 0.078189604 0.11141589
000100 43 8c 3c be 1c 8c a7 bd 4e 4d e1 3d 03 63 17 be
       -0.1841288 -0.081810206 0.11001073 -0.14783864
000110 4e 19 a0 bd 63 4b 9f 3d 29 c9 85 bd 7c db 04 be
       -0.078173265 0.07778051 -0.06532509 -0.12974352
000120 e5 92 2d be 06 d1 58 bd d7 3b 6c bd af ba 81 bb
       -0.16950567 -0.052933715 -0.057674255 -0.003959022
000130 8f 8d d6 3d 81 50 b2 bd 4a 8e 6f b9 a1 42 73 3c
       0.10476219 -0.08706761 -0.00022845823 0.014847429
000140 f0 cb 52 3e 04 0e 3f 3e 05 c6 47 3e a6 a2 5d bd
       0.20585608 0.1865769 0.19509132 -0.05411019
000150 39 45 50 3e e9 07 c5 bc f5 41 56 3e 74 86 82 3d
       0.20338906 -0.024051623 0.20923598 0.06373301
000160 d8 bf f6 bd bc d1 32 be 35 a2 b8 3c 81 ef a8 3d
       -0.1204831 -0.1746282 0.022538284 0.08248807
000170 ce 34 15 3e 1d b3 21 3e 02 55 05 be 48 68 16 3e
       0.14570925 0.15790983 -0.13020709 0.14688218
000180 c7 fb 08 3e a8 54 46 3e ce 3d 87 bd 42 57 1f be
       0.13377295 0.19368231 -0.06603585 -0.1556063
000190 fc 63 4e be 0a a5 01 be 45 7e 47 3e a6 e1 d4 bd
       -0.20155329 -0.12660614 0.19481762 -0.103946015
0001a0 40 69 89 3d fe 9c e6 3c 4b 89 61 3d b1 d2 20 be
       0.06709528 0.028151032 0.055062573 -0.15705372
0001b0 93 4a 33 3e 58 ad eb 3d 55 1b 3d 3e 02 61 38 3d
       0.17508917 0.11507672 0.18467458 0.04501439
0001c0 26 95 25 3e ea 6f 70 be 22 18 20 bd b2 1a 09 be
       0.16170177 -0.23480192 -0.039085515 -0.1338909
0001d0 6e 02 70 be 26 cd a5 3d 58 2d d6 3c f1 bb 84 3d
       -0.23438427 0.080957696 0.026144668 0.064811595
0001e0 2d fb 31 be 74 4c f3 bd df 1f 6b bd c7 10 40 be
       -0.17380972 -0.11879817 -0.05740344 -0.187564
0001f0 01 6b e7 bd c2 f5 5b 3e 22 ab 37 be d2 e6 31 3e
       -0.11299706 0.21480468 -0.17936376 0.17373207
000200 96 cc 1f 3e f4 d0 05 be 2b 93 47 3e 66 3b 14 3c
       0.15605387 -0.1306799 0.19489734 0.009047365
000210 71 cc 33 be 2b 39 4b 3e 0e de 22 be af 11 04 3e
       -0.17558457 0.19846027 -0.1590502 0.12897371
000220 16 cc ab 3d 4f 84 a7 3d c8 35 40 3e df 00 a5 bd
       0.08388536 0.08179533 0.18770516 -0.08056807
000230 b5 5c 71 3e 9a 4e cd 3a 32 3b f2 bd 7b 8d c7 3c
       0.23570521 0.0015663684 -0.11827697 0.024359455
000240 2f 49 12 be 95 e3 86 bb 7e bb 3a bd d9 42 ce bd
       -0.1428573 -0.0041164854 -0.045588963 -0.10071344
000250 10 a2 60 3d 3e b2 c2 bc 66 fe 96 bd 30 bb b1 bd
       0.054842055 -0.023766633 -0.073727414 -0.08678281
000260 1c a3 7b 3d 6b c5 22 3e 1f a3 c0 3d bf 92 6c 3d
       0.06143485 0.15895621 0.09406113 0.057757135
000270 6b 2d 73 be 39 0c eb bb b0 c1 56 bc 03 a4 34 be
       -0.23747794 -0.007173088 -0.013107702 -0.1764069
000280 e8 cf 83 3c ec fa 7a 3e 24 26 ee 3d 08 b4 9d bc
       0.016090348 0.24509782 0.116283685 -0.019250885
000290 04 6f 1f 3e 4f 3d 03 3e 20 b7 63 bd 98 4c 32 3e
       0.15569693 0.12816356 -0.055594563 0.1741203
0002a0 f0 02 ba bc 58 45 15 3e 1a 6d b5 3d 23 9b a2 bd
       -0.022706479 0.14577234 0.088587 -0.07939746
0002b0 23 66 66 be 42 1d 3c 3e 02 d4 cc bb 84 2e 2b bd
       -0.224999 0.18370536 -0.0062508592 -0.041792408
0002c0 78 19 46 be a7 09 4f 3e b3 20 4b 3d 1f 37 19 be
       -0.19345653 0.20218526 0.04959173 -0.14962433
0002d0 c5 92 cd bd ae bd 28 3e e5 c7 2b 3d 2c 31 66 be
       -0.1003776 0.16478607 0.04193868 -0.22479695
0002e0 86 eb d9 ba 6b 66 85 bc 19 0c 65 be 9d 57 67 3d
       -0.0016625978 -0.016284188 -0.22367896 0.05648004
0002f0 b4 0d a7 3b 45 30 09 3c 79 52 68 3e 56 f3 21 3e
       0.005098069 0.008373325 0.22687711 0.15815482
000300 27 c2 f2 3d 36 e7 04 be 44 1f 45 3e 31 aa 1a 3d
       0.11853438 -0.12978825 0.19250208 0.037759963
000310 60 5e 45 be 08 6f 2d 3e c7 05 5e be d6 d2 b2 3d
       -0.19274282 0.16936886 -0.21681891 0.0873162
000320 7c 15 23 3e a6 ad 2e be d6 1a 79 be 1d 14 f9 3d
       0.15926164 -0.17058429 -0.24326643 0.121620394
000330 48 ca 2e 3e 49 5c 02 3e 04 d6 24 be 50 99 bd 3d
       0.17069352 0.12730516 -0.16097265 0.09257758
000340 0b b0 20 3e 49 12 28 3e 7c 9a 34 3e 9e dc 06 be
       0.15692155 0.16413225 0.17637056 -0.13170096
000350 f5 45 cb 3c 3d e4 54 be 8c 81 49 3d 2e f5 1d be
       0.024813632 -0.20790191 0.04919581 -0.1542556
000360 fd be fe bd 9a 19 39 3e 1d 4a 46 3c d1 37 40 be
       -0.12438772 0.18076172 0.012102631 -0.18771292
000370 8c b5 50 3d 6c f7 2e be 07 a6 26 3e 52 32 c7 ba
       0.050954387 -0.17086571 0.16274272 -0.0015197492
000380 3b c6 26 3d 70 61 90 3d 34 8b 75 be f4 8e 27 3e
       0.04071639 0.07049835 -0.23978883 0.16363126
000390 24 37 5e be 58 05 20 3e 8e cc 39 be 0a 2d 13 3e
       -0.21700722 0.15627038 -0.18144438 0.1437265
0003a0 b7 8e 39 3e 6c 1d 3f 3e 65 bb 41 3e 76 81 d0 bb
       0.18120848 0.18663567 0.18919142 -0.006363089
0003b0 61 82 61 bd 10 86 1c 3e be 56 8b 3d 21 a6 a4 bd
       -0.05505598 0.15285516 0.06803654 -0.08039499
0003c0 67 72 80 3d e1 d2 32 bd b3 be 38 3d cd 09 51 3e
       0.062718205 -0.04365814 0.04510374 0.20413895
0003d0 48 2b 09 be 52 bc c3 bd 5b 71 3c 3d 4d 7c 59 bd
       -0.13395417 -0.095574036 0.04600654 -0.053097058
0003e0 2d 2a 02 3c bf 6e a2 bb 6e 47 40 bd 96 06 52 3e
       0.007944626 -0.0049570496 -0.04694312 0.20510325
0003f0 47 72 0f be ae 5a e4 3c 7e fd 3c bd cb b9 37 3e
       -0.14008437 0.02787527 -0.046140186 0.17941968

fc.bias f4 [38]
000000 47 55 3e 3c 00 35 be 3d f6 ca 90 bd c5 21 ce bb
       0.011617011 0.09287453 -0.07069962 -0.0062906467
000010 2f 7d 1f bd 2f c9 a3 bd 43 61 87 bd 56 4d d6 bd
       -0.038937744 -0.07997357 -0.06610348 -0.104639694
000020 72 ec 4f bd 7b 6f 03 3d 09 83 16 3c c2 da ad bd
       -0.0507626 0.032088738 0.009186515 -0.0848899
000030 0b 1c f2 3c bd e5 ca bd 52 7d bc 3d fd 0c 28 3d
       0.029554388 -0.099071 0.092035905 0.04102801
000040 1c 09 df 3d dc 28 d3 bd a6 39 c7 3d 7a 6b 09 3c
       0.10890409 -0.10310528 0.097277924 0.008387441
000050 ce b3 9d 3c 1b dc 80 3c 42 b6 16 bc e0 b5 10 3d
       0.019250777 0.015729954 -0.009198727 0.0353297
000060 7e 45 98 bd 95 14 c7 bc c0 64 86 3c cf e2 3d 3d
       -0.074351296 -0.024301806 0.016405463 0.04635888
000070 46 ff 69 bd 66 07 da bd da a4 8e 3d c7 42 7e 3d
       -0.057128213 -0.106459424 0.06965037 0.062075403
000080 f9 0d e3 bb e0 71 ef 3d c9 44 15 bd 47 93 01 bd
       -0.006929156 0.11691642 -0.03644255 -0.031634595
000090 93 e6 d9 bc 38 c7 30 bd
       -0.026599204 -0.04315874
